example/model/best_model.pth (torch, 13939 bytes, 2 tensors)

weight f4 [6, 512]
0	0xbc64a00b	-0.013954173
1	0x3b820546	0.003967914
2	0xbd4e3f42	-0.050353296
3	0xb953418f	-0.0002014695
4	0x3ce1a094	0.02754239
5	0xbcc6e64b	-0.024279734
6	0xbd8f9d13	-0.070123814
7	0xbd0637ce	-0.032768063
8	0xbd22e971	-0.03977341
9	0xbd7b1e1e	-0.06130802
10	0x3caee6e4	0.021350332
11	0xbc286224	-0.010277305
12	0x3d1309d6	0.035898052
13	0xbd2135f7	-0.039358106
14	0x3c45b63c	0.012067374
15	0xbb6e613d	-0.0036373877
16	0xbda320b0	-0.07965219
17	0x3d0c7e1e	0.034299962
18	0xbcc87f7c	-0.024474852
19	0xbd807ec6	-0.0627418
20	0x3d0e1cab	0.03469531
21	0x3cb6b5b6	0.022303443
22	0x3cfb9f9e	0.03071576
23	0x3d0ca895	0.03434046
24	0xbd068d12	-0.03284938
25	0xbd5e6352	-0.054293938
26	0xbc870ba0	-0.016485035
27	0xbd1d9762	-0.038474448
28	0xbda5ce61	-0.08096004
29	0xbdd4563e	-0.10368012
30	0xbc62d211	-0.013844029
31	0x3d31cabf	0.043406244
32	0x3d775ce5	0.060391326
33	0x3da17fdc	0.07885715
34	0x3d3a1efe	0.045439713
35	0x3d91cb4c	0.07118854
36	0x3df57e58	0.11986989
37	0x3e25a46a	0.16176
38	0xbd0eb370	-0.034839094
39	0xbd08322e	-0.03325098
40	0x3d750d04	0.059826866
41	0xbe2243d3	-0.15846185
42	0x3cb5197c	0.022106878
43	0x3d1d4cac	0.038403198
44	0x3bcec521	0.0063101207
45	0xbd1ceb48	-0.03831032
46	0xbb04b598	-0.002024984
47	0xbd19ce6e	-0.037550382
48	0xbd06fafa	-0.032954194
49	0x3c0c8418	0.0085764155
50	0xbe53c03d	-0.20678802
51	0x3db8bd64	0.090204984
52	0xbdf2446a	-0.11829455
53	0x3c15c794	0.009141821
54	0xbc8066ef	-0.015674083
55	0x3d8750d7	0.06607216
56	0xbd23c0ea	-0.0399789
57	0xbc3f845e	-0.011689274
58	0x3c9d1d0c	0.01917889
59	0x3d50a26e	0.050936155
60	0x3c4fb95c	0.01267847
61	0x3bccb499	0.006247115
62	0xbb043859	-0.0020175187
63	0x3d3c199f	0.04592287
64	0xbcbf2028	-0.023330763
65	0x3d371a64	0.044702902
66	0xbd0a892a	-0.033822216
67	0xbd34cfb1	-0.044143382
68	0xbd94488b	-0.07240399
69	0x3d02f502	0.03197194
70	0x3dc47490	0.09592545
71	0x3d90bb24	0.07066944
72	0x3d1ef6f7	0.038809743
73	0xbcb5c7de	-0.02219003
74	0x3cfa9de3	0.030592864
75	0xbd1afac5	-0.03783681
76	0xbc73496d	-0.014849049
77	0xbddea19a	-0.10870667
78	0x3cbbda4d	0.022931242
79	0xbcb326f0	-0.021869153
80	0x3c6ac017	0.014328024
81	0xbd85bacf	-0.065297715
82	0xbe1def4f	-0.1542332
83	0x3d244ea2	0.040114053
84	0xbd97dc3b	-0.074150525
85	0x3da76482	0.08173467
86	0x3cc07989	0.023495452
87	0xbe023b79	-0.12718
88	0x3b1f749a	0.0024330975
89	0x3c068fff	0.008213042
90	0x3ca495eb	0.020091018
91	0x3d291f9b	0.041289907
92	0xbc54f263	-0.012997243
93	0xbcb3406f	-0.02188131
94	0x3b4469fb	0.0029970396
95	0xbd39e2eb	-0.04538242
96	0x3ddc75e1	0.10764671
97	0x3cc37757	0.023860617
98	0x3cf10e7e	0.029425856
99	0x3d182115	0.037140924
100	0x3c8efcf6	0.017454606
101	0x3dba41ec	0.09094605
102	0x3b996119	0.0046807644
103	0x3deb73b8	0.11496681
104	0x3d3d2634	0.04617901
105	0x3d2aff60	0.04174745
106	0xbdb3a9b2	-0.08772601
107	0x3d0530a5	0.032517094
108	0x3d1e34bf	0.03862452
109	0x3cc29bd9	0.023755955
110	0x3d4a270b	0.04935364
111	0xbccb14dc	-0.02479022
112	0x3d335071	0.043777887
113	0x3d77bfac	0.060485527
114	0x3d283c45	0.041073103
115	0xbd067a46	-0.032831453
116	0xbd464fa4	-0.048415795
117	0xbe01531c	-0.1262936
118	0xbcf1935c	-0.029489212
119	0xbc068cc0	-0.008212268
120	0xbd340c22	-0.043956883
121	0x3dcb6cdd	0.099328734
122	0x3dad6be2	0.08467843
123	0xbcfe4170	-0.031037062
124	0xbc0fca53	-0.008776265
125	0xbcddeb92	-0.027089868
126	0x3bc3c7be	0.005974739
127	0xbd6ea6b5	-0.058264453
128	0xbd3e48ac	-0.046456024
129	0x3d2440c2	0.04010082
130	0x3d48d8dc	0.04903494
131	0x3d76d860	0.060264945
132	0xbcb10ecc	-0.021613501
133	0x3c8af64e	0.01696315
134	0x3ca36cb8	0.019949302
135	0xbcc633e8	-0.024194673
136	0x3cab9f23	0.020949906
137	0xbd8fdcb5	-0.070245184
138	0x3d193d58	0.037412018
139	0xba80a360	-0.0009814315
140	0xbbb35ced	-0.005473724
141	0x3c782176	0.015144696
142	0x3bec5b24	0.0072130132
143	0xbe4761ea	-0.19470945
144	0x3d9255fa	0.07145305
145	0x3d82db13	0.06389441
146	0x3c9e20fb	0.019302836
147	0xbd36e083	-0.044647705
148	0xbbee6231	-0.007274889
149	0xbcccb333	-0.024987793
150	0xbd5a3547	-0.053273465
151	0x3d8171af	0.063205115
152	0xbc5bb5be	-0.01341003
153	0xbd6481b0	-0.055787742
154	0xbb93b25d	-0.0045073465
155	0x3c698d4d	0.01425488
156	0x3d22742b	0.039661568
157	0xbd29aaa6	-0.04142251
158	0x3d8ccc9e	0.06874965
159	0x3e1d3d1c	0.15355343
160	0x3d2c8170	0.04211563
161	0xbdc0f517	-0.09421747
162	0xba9e3d89	-0.0012072782
163	0xbc7722fb	-0.015084024
164	0xbdde6e57	-0.108608894
165	0x3ca3b8a5	0.019985506
166	0xbc826c32	-0.015920732
167	0x3dabcc83	0.08388617
168	0x3d040eff	0.032240864
169	0xbc3df234	-0.01159339
170	0xbcf6fec9	-0.030150788
171	0xbc13c068	-0.009018041
172	0xbdb44206	-0.088016555
173	0xbbdb5ad0	-0.0066941753
174	0x3d76cec7	0.060255792
175	0xbb371a61	-0.0027939307
176	0x3d0afccf	0.033932503
177	0xbb4b467c	-0.0031017354
178	0xbd578616	-0.05261811
179	0xbcec6119	-0.028854894
180	0x3b7ac578	0.0038264673
181	0x3bc15012	0.0058994377
182	0xbd478f94	-0.04872091
183	0x3cb8fa5f	0.022580324
184	0xbcca3b78	-0.02468656
185	0x3de64af8	0.11244768
186	0xbe21b1b6	-0.15790448
187	0xbd2a74ac	-0.041615173
188	0x3d6063be	0.05478262
189	0xbd678df8	-0.056531876
190	0xbd6164c5	-0.055027742
191	0x3cb92e83	0.022605186
192	0xbdca9539	-0.09891743
193	0x3ab808ad	0.0014040672
194	0xbd506399	-0.050876234
195	0xbc79558d	-0.015218151
196	0xbd38ae67	-0.045088198
197	0x3d147ff5	0.03625484
198	0x3d3c271b	0.04593573
199	0x3d0cceca	0.034376897
200	0x3cf52a03	0.02992726
201	0xbd19a430	-0.037510097
202	0xbcc9723f	-0.02459061
203	0xbd8e1e29	-0.06939346
204	0xbd0d9b4a	-0.034571923
205	0xbc7e0cb8	-0.015505962
206	0xbca96784	-0.020679243
207	0x3bf1571c	0.0073651206
208	0xbd201808	-0.039085418
209	0xbcea7c23	-0.028623646
210	0xbd69abbc	-0.057048544
211	0xbd969783	-0.07353117
212	0xbc284512	-0.010270374
213	0xbd0a147d	-0.033710945
214	0xbb48c4a6	-0.003063479
215	0xbac8ee72	-0.0015329851
216	0x3c9f4468	0.019441798
217	0xbd9cbffa	-0.07653804
218	0xbdb5e703	-0.088819526
219	0xbc0a4841	-0.008440078
220	0xbd74d772	-0.059775777
221	0x3b983d8b	0.0046460084
222	0xbd00e274	-0.031465963
223	0x3d2f40f8	0.04278657
224	0x3d0faeef	0.03507894
225	0x3d7dce6a	0.06196443
226	0xbd069bba	-0.032863356
227	0xbcc84c27	-0.024450375
228	0x3d1cd273	0.038286638
229	0x3cf28432	0.029604051
230	0x3d8b8467	0.06812363
231	0x3d7cf201	0.06175423
232	0xbd6a92ce	-0.05726891
233	0x3c34ebe9	0.0110425735
234	0xba7bc60b	-0.0009604401
235	0x3c907f2d	0.017638767
236	0x3c923dae	0.017851677
237	0x3c869f9e	0.016433533
238	0xbb37e840	-0.0028062016
239	0x3d6aba06	0.057306312
240	0xbd57fe5b	-0.052732807
241	0xbc937921	-0.018002095
242	0xbd8fd55c	-0.07023117
243	0x3d3c338e	0.045947604
244	0x3d796fea	0.060897745
245	0xbd4bba72	-0.049738355
246	0x3d29528c	0.04133849
247	0xbb0ff5b0	-0.002196651
248	0x3c500348	0.012696095
249	0x3e115cbe	0.14195535
250	0xbd8d7869	-0.06907732
251	0x3d68753a	0.05675242
252	0x3cbfa8de	0.023395952
253	0xbd10627a	-0.035250165
254	0xbd22085d	-0.039558757
255	0xbc35f606	-0.01110602

bias f4 [6]
0	0xbd57798c	-0.05260615
1	0xbd2e8e57	-0.042616215
2	0x3cc9885f	0.02460116
3	0xbd1b6fc0	-0.03794837
4	0xbc29ab40	-0.010355771
5	0xbcf3baf1	-0.029752227
